…
        "input_shape = 224, 224, 3\n",
        "n_classes = 1000\n",
        "\n",
        "K.clear_session()\n",
        "model = alexnet(input_shape, n_classes)\n",
        "model.summary()"
      ],
      "execution_count": 5,
      "outputs": [
        {
          "output_type": "stream",
          "text": [
            "_________________________________________________________________\n",
            "Layer (type)                 Output Shape              Param #   \n",
            "=================================================================\n",
            "input_1 (InputLayer)         (None, 224, 224, 3)       0         \n",
            "_________________________________________________________________\n",
            "conv2d_1 (Conv2D)            (None, 56, 56, 96)        34944     \n",
            "_________________________________________________________________\n",
            "batch_normalization_1 (Batch (None, 56, 56, 96)        384       \n",
            "_________________________________________________________________\n",
            "max_pooling2d_1 (MaxPooling2 (None, 27, 27, 96)        0         \n",
            "_________________________________________________________________\n",
            "conv2d_2 (Conv2D)            (None, 27, 27, 256)       614656    \n",
            "_________________________________________________________________\n",
            "batch_normalization_2 (Batch (None, 27, 27, 256)       1024      \n",
            "_________________________________________________________________\n",
            "max_pooling2d_2 (MaxPooling2 (None, 13, 13, 256)       0         \n",
            "_________________________________________________________________\n",
            "conv2d_3 (Conv2D)            (None, 13, 13, 384)       885120    \n",
            "_________________________________________________________________\n",
            "conv2d_4 (Conv2D)            (None, 13, 13, 384)       1327488   \n",
            "_________________________________________________________________\n",
            "conv2d_5 (Conv2D)            (None, 13, 13, 256)       884992    \n",
            "_________________________________________________________________\n",
            "batch_normalization_3 (Batch (None, 13, 13, 256)       1024      \n",
            "_________________________________________________________________\n",
            "max_pooling2d_3 (MaxPooling2 (None, 6, 6, 256)         0         \n",
            "_________________________________________________________________\n",
            "flatten_1 (Flatten)          (None, 9216)              0         \n",
            "_________________________________________________________________\n",
            "dense_1 (Dense)              (None, 4096)              37752832  \n",
            "_________________________________________________________________\n",
            "dense_2 (Dense)              (None, 4096)              16781312  \n",
            "_________________________________________________________________\n",
            "dense_3 (Dense)              (None, 1000)              4097000   \n",
            "=================================================================\n",
            "Total params: 62,380,776\n",
            "Trainable params: 62,379,560\n",
            "Non-trainable params: 1,216\n",
            "_________________________________________________________________\n"
          ],
          "name": "stdout"
        }
      ]
    },
    {
      "metadata": {
        "id": "3zUgEfKw_Sm6",
…
        "input_shape = 224, 224, 3\n",
        "n_classes = 1000\n",
        "\n",
        "K.clear_session()\n",
        "model = vgg(input_shape, n_classes)\n",
        "model.summary()"
      ],
      "execution_count": 9,
      "outputs": [
        {
          "output_type": "stream",
          "text": [
            "_________________________________________________________________\n",
            "Layer (type)                 Output Shape              Param #   \n",
            "=================================================================\n",
            "input_1 (InputLayer)         (None, 224, 224, 3)       0         \n",
            "_________________________________________________________________\n",
            "conv2d_1 (Conv2D)            (None, 224, 224, 64)      1792      \n",
            "_________________________________________________________________\n",
            "conv2d_2 (Conv2D)            (None, 224, 224, 64)      36928     \n",
            "_________________________________________________________________\n",
            "max_pooling2d_1 (MaxPooling2 (None, 112, 112, 64)      0         \n",
            "_________________________________________________________________\n",
            "conv2d_3 (Conv2D)            (None, 112, 112, 128)     73856     \n",
            "_________________________________________________________________\n",
            "conv2d_4 (Conv2D)            (None, 112, 112, 128)     147584    \n",
            "_________________________________________________________________\n",
            "max_pooling2d_2 (MaxPooling2 (None, 56, 56, 128)       0         \n",
            "_________________________________________________________________\n",
            "conv2d_5 (Conv2D)            (None, 56, 56, 256)       295168    \n",
            "_________________________________________________________________\n",
            "conv2d_6 (Conv2D)            (None, 56, 56, 256)       590080    \n",
            "_________________________________________________________________\n",
            "conv2d_7 (Conv2D)            (None, 56, 56, 256)       590080    \n",
            "_________________________________________________________________\n",
            "max_pooling2d_3 (MaxPooling2 (None, 28, 28, 256)       0         \n",
            "_________________________________________________________________\n",
            "conv2d_8 (Conv2D)            (None, 28, 28, 512)       1180160   \n",
            "_________________________________________________________________\n",
            "conv2d_9 (Conv2D)            (None, 28, 28, 512)       2359808   \n",
            "_________________________________________________________________\n",
            "conv2d_10 (Conv2D)           (None, 28, 28, 512)       2359808   \n",
            "_________________________________________________________________\n",
            "max_pooling2d_4 (MaxPooling2 (None, 14, 14, 512)       0         \n",
            "_________________________________________________________________\n",
            "conv2d_11 (Conv2D)           (None, 14, 14, 512)       2359808   \n",
            "_________________________________________________________________\n",
            "conv2d_12 (Conv2D)           (None, 14, 14, 512)       2359808   \n",
            "_________________________________________________________________\n",
            "conv2d_13 (Conv2D)           (None, 14, 14, 512)       2359808   \n",
            "_________________________________________________________________\n",
            "max_pooling2d_5 (MaxPooling2 (None, 7, 7, 512)         0         \n",
            "_________________________________________________________________\n",
            "flatten_1 (Flatten)          (None, 25088)             0         \n",
            "_________________________________________________________________\n",
            "dense_1 (Dense)              (None, 4096)              102764544 \n",
            "_________________________________________________________________\n",
            "dense_2 (Dense)              (None, 4096)              16781312  \n",
            "_________________________________________________________________\n",
            "dense_3 (Dense)              (None, 1000)              4097000   \n",
            "=================================================================\n",
            "Total params: 138,357,544\n",
            "Trainable params: 138,357,544\n",
            "Non-trainable params: 0\n",
            "_________________________________________________________________\n"
          ],
          "name": "stdout"
        }
      ]
    },
    {
      "metadata": {
        "id": "MHbIAmt6CDmo",
…
